latent_models/saved_models/vae_1.pt (torch, 488367 bytes, 18 tensors)

encoder.0.weight f4 [64, 784]
0	0x3c9cbb00	0.019132137
1	0xbcc0c80c	-0.02353289
2	0xbc0c8ae4	-0.008578036
3	0xbc602d9c	-0.013682749
4	0x3cf4157e	0.029795405
5	0x3c0ac4b8	0.008469753
6	0xbcebabec	-0.028768502
7	0x3ca0bb32	0.019620512
8	0x3cab08e0	0.020878255
9	0x3d0ae591	0.033910338
10	0xbccf992a	-0.025341589
11	0xbb8e45a8	-0.0043417998
12	0x3c4bd9a0	0.012442023
13	0xbc36ca8e	-0.011156691
14	0x3c9c8fea	0.019111592
15	0xbcc2f40e	-0.023798015
16	0xbc800090	-0.015625268
17	0xbc992f4e	-0.018699314
18	0x3c4b0aa0	0.01239267
19	0x3ae0f420	0.0017162599
20	0x3cb6d7be	0.02231967
21	0x3c965202	0.018349651
22	0xbce50b11	-0.027959378
23	0xbcea85ba	-0.028628219
24	0x3cc7e6e2	0.024402086
25	0xbcb8fc30	-0.02258119
26	0xbcf500e8	-0.029907659
27	0x3b999d68	0.0046879537
28	0x3cfc28b6	0.030781131
29	0xbd0e20d8	-0.03469929
30	0x3ce5d31e	0.02805477
31	0xbcc8b773	-0.024501538
32	0xbd05b63d	-0.0326445
33	0x3bafe8e8	0.0053683408
34	0x3c245d00	0.010031939
35	0x3bd95db0	0.006633483
36	0x3c462878	0.012094609
37	0xbd0c5045	-0.03425624
38	0x3be721a0	0.007053569
39	0x3b83b910	0.004019864
40	0xbcaa7cbe	-0.020811435
41	0xbc1bd7ce	-0.009511901
42	0x3c293120	0.010326654
43	0xbca1dc07	-0.019758238
44	0xbc7d0766	-0.015443658
45	0x3ce4615e	0.02787846
46	0xbcba12a3	-0.022713965
47	0x3c9804ea	0.01855703
48	0xbcfd74e1	-0.030939521
49	0xbbf67bc8	-0.00752208
50	0xbd0ecbdc	-0.034862384
51	0xbbdf7578	-0.0068194233
52	0xbcfe2393	-0.031022822
53	0xbb9c1754	-0.004763523
54	0xbb44d9d0	-0.0030037053
55	0x3c966060	0.018356502
56	0xbd0d037f	-0.034427162
57	0xbb250110	-0.0025177635
58	0xbb828688	-0.0039833225
59	0xbcf21b63	-0.029554075
60	0x3cdbdea6	0.026839565
61	0xbd10fe48	-0.03539875
62	0x3bd06a70	0.0063603446
63	0xbc1e7118	-0.009670518
64	0x3b35be58	0.0027731862
65	0x3c836a77	0.016041977
66	0xbabf54a6	-0.0014597371
67	0xbc8c45e5	-0.017123172
68	0x3d0ad79d	0.03389703
69	0xbcb5deaa	-0.022200901
70	0xbba5f21c	-0.005064262
71	0x3d05e5e5	0.032689948
72	0x3ca744fe	0.02041864
73	0xbc4a306a	-0.012340644
74	0x3c9fd9a6	0.019512963
75	0xbcf6c8e5	-0.03012509
76	0x3cb06852	0.021534119
77	0x3caee65e	0.021350082
78	0xbc3602ce	-0.011109067
79	0xbbe81ec0	-0.007083744
80	0xbc652a86	-0.013987189
81	0x3c8b2990	0.016987592
82	0x3cda67c6	0.026660811
83	0x3bcf01e0	0.006317362
84	0x3cf6880e	0.030094173
85	0xbc8c69e7	-0.017140342
86	0x3d03e34f	0.0321992
87	0xbc853a35	-0.016263107
88	0xbd094d3a	-0.033520915
89	0x3c430f54	0.01190551
90	0xbc3252ae	-0.01088397
91	0x3c96b801	0.018398287
92	0xbccdba02	-0.02511311
93	0x3c73e2d1	0.01488562
94	0x3ae07e47	0.0017127477
95	0xbc9ba269	-0.018998342
96	0xbc885d66	-0.016646098
97	0xbb1cb745	-0.0023912948
98	0x3caf61f0	0.021409005
99	0xbc48a7d3	-0.012247044
100	0xbc8820f4	-0.016617276
101	0xbd22086f	-0.039558824
102	0xbb2ff050	-0.0026846118
103	0xbc9527b5	-0.01820741
104	0x3b968638	0.004593637
105	0xbbe5e038	-0.0070152543
106	0xbcd06005	-0.02543641
107	0x3cb05c6a	0.021528441
108	0x3d0b09d9	0.03394494
109	0x3c5638a0	0.013075024
110	0xbc1e5da6	-0.009665882
111	0x3c3af884	0.01141179
112	0xbce70bb8	-0.02820383
113	0xbae2b040	-0.0017294958
114	0x3d044ec9	0.032301698
115	0x3c96e55a	0.01841991
116	0x3cb16006	0.021652233
117	0x3c09fe70	0.008422479
118	0x3cc48328	0.023988321
119	0xbc5f6481	-0.013634802
120	0x3ba206a1	0.004944638
121	0x3c4b2804	0.012399677
122	0xbc69f506	-0.01427961
123	0xbcb293d5	-0.021799007
124	0xbd183370	-0.03715843
125	0xbd245f66	-0.04013004
126	0x3c988cde	0.018621858
127	0xbd100eef	-0.03517049
128	0xbd0b24f6	-0.033970796
129	0xbcd93e8f	-0.026519088
130	0xbc333842	-0.010938706
131	0x39ba8080	0.00035572425
132	0xbb959794	-0.0045651887
133	0x3c2d7e60	0.010589212
134	0xbd121894	-0.03566797
135	0xbced7b0a	-0.028989334
136	0xbc31188a	-0.010809073
137	0xbce17ae0	-0.027524412
138	0x3c54edc8	0.012996145
139	0x3c0fdf90	0.008781329
140	0xbbfd3f88	-0.007728521
141	0xbcc06750	-0.023486763
142	0xbc2c4ef8	-0.0105168745
143	0xbbae761c	-0.0053241383
144	0x3be029c0	0.0068409145
145	0x3b14c9a0	0.0022703186
146	0x3ce95782	0.02848411
147	0xbc83e02f	-0.01609811
148	0x3d241910	0.040062964
149	0x3acce1fa	0.0015631311
150	0xbd02124c	-0.03175573
151	0x3c8f224f	0.017472414
152	0xbcc0aaa2	-0.023518864
153	0x3cda5087	0.026649727
154	0xbcee35d8	-0.02907841
155	0x3c10c61a	0.008836294
156	0xbc396d99	-0.011317634
157	0xbcdb83fc	-0.026796333
158	0x3c831d0e	0.016005065
159	0xbd0dd647	-0.03462818
160	0xbc1e5b58	-0.009665333
161	0xbcb72768	-0.022357658
162	0xbc596e3c	-0.013270911
163	0xbcc16fcc	-0.02361288
164	0xbbb195e4	-0.0054194797
165	0xbcd40da8	-0.025885418
166	0xbac9e1a0	-0.0015402324
167	0x3c90e0d8	0.017685339
168	0xbbac1ec8	-0.005252693
169	0x3ca47a40	0.020077825
170	0x3cd8482e	0.026401605
171	0xbcf6edd5	-0.030142704
172	0x3bb96640	0.005657941
173	0x3c4dfb54	0.012572128
174	0x39beaf00	0.0003637001
175	0x3bc4c171	0.0060045053
176	0x3c7351a3	0.014851007
177	0xbccbd9e5	-0.024884174
178	0xbbae8b9c	-0.0053267013
179	0xbcc52c24	-0.0240689
180	0x3c91ed9d	0.017813498
181	0xba3ba7f4	-0.0007158511
182	0x3c679a58	0.0141359195
183	0xbc046f24	-0.008083139
184	0xbc3d8471	-0.011567221
185	0x38b39b8f	8.56436e-05
186	0xbcb6c329	-0.022309856
187	0xbcc9aa8d	-0.024617458
188	0x3b1a1420	0.002351053
189	0x3c8788a2	0.016544644
190	0x3cd02b72	0.025411341
191	0xbcfb457e	-0.030672785
192	0xbca6c7e5	-0.020358989
193	0xbd0d9736	-0.034568034
194	0xbc94ea95	-0.018178264
195	0x3cb1eaca	0.021718401
196	0xbce743f1	-0.02823064
197	0xbab4dec0	-0.0013799295
198	0x3b6372d7	0.00347059
199	0x3cf162af	0.029466001
200	0xbd043718	-0.032279104
201	0xbbdf23e8	-0.0068097003
202	0xbd03225f	-0.0320152
203	0xbce577a9	-0.02801116
204	0x3ccd3c31	0.025053116
205	0xbc3ebdd7	-0.011641941
206	0xbca6404c	-0.020294331
207	0xbcb6f426	-0.022333216
208	0xbbc2502e	-0.0059299683
209	0xbd237641	-0.039907698
210	0xbc3d4187	-0.0115512675
211	0x3b9be223	0.004757182
212	0xbcd13491	-0.02553776
213	0xbb11a0b0	-0.0022221021
214	0x3ce7f773	0.028316235
215	0x3cd58f17	0.026069207
216	0xba994b5a	-0.001169543
217	0xbc0a7c33	-0.008452463
218	0x3b3c944e	0.002877492
219	0x3c6dcaaf	0.014513656
220	0xbd0e3147	-0.034714963
221	0xbd10ca76	-0.03534933
222	0x3bbc0718	0.0057381503
223	0x3ca40c70	0.020025462
224	0xbba58f38	-0.0050524734
225	0x3c7ff944	0.015623394
226	0x3aa17c77	0.0012320419
227	0xbd092ef8	-0.03349206
228	0x3c9f933c	0.019479387
229	0xbc5dd412	-0.013539331
230	0x3cc915f1	0.024546595
231	0x3c729138	0.014805131
232	0xbbbebb6d	-0.0058206827
233	0xbbc321e7	-0.005954969
234	0x3c5d7c23	0.013518366
235	0x3c1c0522	0.009522708
236	0xbd05930f	-0.03261095
237	0x3c72ffc4	0.014831487
238	0xbc28d9bf	-0.010305821
239	0xbc6d0baa	-0.014468113
240	0xbcf048f2	-0.029331658
241	0xbb8977cb	-0.0041951886
242	0x3bf23b32	0.0073923105
243	0x3a57b465	0.000822848
244	0xbcdb482b	-0.02676781
245	0x3a3c14e2	0.00071747426
246	0xbab2b993	-0.0013635628
247	0xbc319e24	-0.010840926
248	0xbcc6d71d	-0.024272496
249	0x3ce8657f	0.02836871
250	0x3c5edab1	0.013601945
251	0x3c0ae37c	0.008477088
252	0xbd0edae8	-0.034876734
253	0xbcd2349e	-0.025659855
254	0xbd277424	-0.040882245
255	0x381d2211	3.7463444e-05

encoder.0.bias f4 [64]
0	0xbbeba56f	-0.007191352
1	0xbc2a02ec	-0.010376673
2	0xbcd983c9	-0.026552098
3	0x3e11a983	0.1422482
4	0x3de3390f	0.110948674
5	0xbb49aa94	-0.0030771839
6	0x3e6bdb52	0.23032883
7	0xbc18a13a	-0.009315783
8	0x3dc08fc1	0.09402419
9	0x3dfef5ff	0.12449264
10	0x3cbea886	0.023273718
11	0xbc7736ec	-0.015088778
12	0xbc6f9e3c	-0.014625128
13	0x3e36beb9	0.17846192
14	0x3db8953c	0.09012839
15	0x3e8f8959	0.28034475
16	0xbebbeab7	-0.3670251
17	0x3e832829	0.25616577
18	0x3e559155	0.20856221
19	0xbe493140	-0.19647694
20	0xbd8d47c3	-0.06898453
21	0x3e1d4121	0.15356876
22	0xbe481c25	-0.19541986
23	0x3e85faca	0.261679
24	0x3ea15c3c	0.31515682
25	0x3eb26d97	0.34849235
26	0x3c407f4d	0.011749101
27	0x3e9ea831	0.30987695
28	0x3e0096b8	0.12557495
29	0x3ec954f1	0.39322618
30	0xbd0d9468	-0.03456536
31	0x3b5b5aaf	0.00334708
32	0xbcfe08b6	-0.031010013
33	0x3cb2c56e	0.021822657
34	0x3eb92cc0	0.36166954
35	0x3df33604	0.11875537
36	0x3cb7d383	0.022439724
37	0x3eed447d	0.46341315
38	0x3ec3bb07	0.38228628
39	0x3d72085b	0.05909
40	0xbd36a7b4	-0.044593528
41	0x3e4d6489	0.20057882
42	0x3b8330c2	0.004003615
43	0xbc144625	-0.009049927
44	0x3ee1f0f6	0.4412915
45	0x3ddad90d	0.106859304
46	0x3e9cf4bc	0.30655468
47	0x3d75cdb7	0.060010638
48	0x3b0cc601	0.0021480324
49	0x3caf785b	0.021419695
50	0xbe1a9c1e	-0.15098616
51	0x3e269a50	0.16269803
52	0x3b9b1dfc	0.004733799
53	0x3e8f7694	0.28020155
54	0xbdadd95f	-0.08488726
55	0x3c8cd20b	0.01719
56	0x3ea3e1b9	0.3200815
57	0xbbeed102	-0.0072880993
58	0x3e98198d	0.29706994
59	0x3e2beb0e	0.16788885
60	0x3cc07a46	0.023495805
61	0xbc0c6a28	-0.0085702315
62	0x3e493b1d	0.19651456
63	0x3bc42d02	0.0059868107

encoder.2.weight f4 [64, 64]
0	0xbc8f7113	-0.017509973
1	0x3c976d9c	0.018484883
2	0x3bafc53d	0.005364089
3	0xbdeb01c3	-0.114749454
4	0xbdd0b6f1	-0.10191143
5	0x3d0f5084	0.034988895
6	0xbe01836f	-0.12647794
7	0xbcb2556e	-0.021769252
8	0xbdd5e619	-0.10444278
9	0xbdeed2e4	-0.11661318
10	0xbdfdc3ca	-0.123908594
11	0x3de1ac3f	0.110191815
12	0x3d871ab9	0.06596894
13	0xbdf87683	-0.12131979
14	0xbd96cd1c	-0.0736334
15	0xbe055556	-0.13020834
16	0xbd105364	-0.035235777
17	0xbd260ebf	-0.040541407
18	0x3c660ea5	0.0140415775
19	0xbc97bf21	-0.018523755
20	0xbdcb9f80	-0.099425316
21	0x3c59ba2e	0.013289018
22	0xbca062aa	-0.019578297
23	0xbdc51663	-0.096234106
24	0xbdd576c1	-0.10423041
25	0xbcad90a4	-0.021187134
26	0xbb97e761	-0.004635737
27	0xbd2c918e	-0.042131
28	0xbde66343	-0.112494014
29	0xbe03ecdd	-0.12883325
30	0x3da6eedb	0.08151027
31	0xbd4938cb	-0.049126428
32	0xbdd1ea73	-0.10249796
33	0xbdf40ab6	-0.119161054
34	0xbc74adc4	-0.014934007
35	0xbe055f04	-0.13024527
36	0xbda2a246	-0.079411075
37	0x3da390b7	0.079865865
38	0xbdda3e63	-0.106564306
39	0xbdbae20c	-0.09125146
40	0xbdd4130d	-0.10355196
41	0xbce48637	-0.02789603
42	0x3d8a637d	0.06757257
43	0xbdd02862	-0.101639524
44	0xbc8940bb	-0.016754499
45	0x3ccc366b	0.024928292
46	0x3ca07afc	0.019589894
47	0xbd5b053f	-0.0534718
48	0xbd41a3ed	-0.047275472
49	0x3d9b867a	0.07594009
50	0x3d6d6d31	0.05796546
51	0x3d4c6c24	0.04990782
52	0x3d128eb3	0.03578062
53	0x3d4c0c43	0.04981638
54	0xbe08c5e1	-0.13356735
55	0x3d2b513d	0.04182552
56	0xbcf5fe1f	-0.030028401
57	0x3c76737d	0.015042183
58	0x3d4b0e69	0.04957429
59	0x3d0ea712	0.0348273
60	0xbe04f371	-0.1298349
61	0x3da92d23	0.08260562
62	0x3cc1efc1	0.023673894
63	0xbdffdf2d	-0.12493739
64	0x3cd1fe57	0.025633974
65	0x3a92c621	0.0011197963
66	0xbdb08d08	-0.086206496
67	0x3e1514e2	0.14558747
68	0x3d0c9de6	0.03433027
69	0x3d1fb41b	0.03899012
70	0x3dab7d1d	0.08373473
71	0xbd2cd8a3	-0.04219879
72	0x3c495f8f	0.012290849
73	0x3d87cbc3	0.06630661
74	0x3cd3b80e	0.0258446
75	0x3d80233d	0.06256721
76	0xbdaec2d1	-0.08533252
77	0xbe0600cc	-0.13086241
78	0x3de5f4f7	0.11228364
79	0x3e57a26c	0.21058053
80	0xbe00c389	-0.1257459
81	0xbd9c0477	-0.07618039
82	0xbe03a90c	-0.12857455
83	0x3db9a6e6	0.090650365
84	0xbcf74664	-0.030184932
85	0x3e624c04	0.2209931
86	0xbe221552	-0.15828446
87	0x3e720eb2	0.23638418
88	0x3dfff7f2	0.12498464
89	0x3c953159	0.018212007
90	0xbcffab13	-0.031209504
91	0x3d6eea3f	0.058328863
92	0x3ec35036	0.38147134
93	0x3dd6be25	0.10485486
94	0xbcf94736	-0.030429464
95	0xbd16a135	-0.036774833
96	0x3d967afa	0.07347675
97	0xbdc85a0b	-0.09782799
98	0x3d9a886b	0.07545551
99	0xbe2a0f09	-0.16607298
100	0x3d9eef07	0.077604346
101	0x3d13047d	0.035892952
102	0xbc99eb75	-0.018789032
103	0xbd98095f	-0.074236624
104	0xbc36d68f	-0.011159553
105	0x3d0e269c	0.03470479
106	0xbaf777b5	-0.001888028
107	0x3c99bf29	0.01876791
108	0xbe2875ec	-0.16451234
109	0xbd57890b	-0.05262093
110	0xbe64399c	-0.22287601
111	0xbda2ef84	-0.0795584
112	0x3da17857	0.07884281
113	0xbcceb07b	-0.025230637
114	0x3d4d69a4	0.050149575
115	0x3eb981e8	0.36231923
116	0x3ccab52a	0.024744589
117	0x3ce06a08	0.02739431
118	0x3c1826a2	0.0092865545
119	0xbd247dd4	-0.04015906
120	0xbdfb6cb0	-0.1227659
121	0xbb90f79d	-0.004424049
122	0x3d4d9efb	0.050200444
123	0xbdb5636c	-0.08856854
124	0x3c085f9c	0.008323576
125	0x3d15e181	0.03659201
126	0x3e77572b	0.24154346
127	0x3d95aa35	0.07307855
128	0x3d560fb6	0.052261077
129	0xba4acc67	-0.0007736147
130	0xbd97e8f9	-0.07417483
131	0xbdfeb182	-0.12436201
132	0x3dc638f4	0.09678832
133	0x3b4efe4f	0.0031584685
134	0x3d695f6d	0.05697577
135	0x3cc66ea3	0.024222678
136	0x3e04b0c5	0.12958057
137	0xbea411e2	-0.32044894
138	0x3ba9174b	0.0051602474
139	0x3c5096ce	0.012731267
140	0xbde1667b	-0.11005875
141	0x3dd7b151	0.10531867
142	0xbcfded6d	-0.030997002
143	0x3e3df823	0.18551688
144	0xbb9a1156	-0.0047017736
145	0x3e1fe92a	0.15616289
146	0xbda1cc3d	-0.079002835
147	0xbd40a599	-0.047032926
148	0x3d140994	0.036141947
149	0x3e25ea31	0.16202618
150	0x3ccd3542	0.02504981
151	0xbca0ef34	-0.019645311
152	0x3bb57b7d	0.0055384026
153	0x3e27bef5	0.16381438
154	0x3dbed9ca	0.09318884
155	0x3ce73e06	0.028227817
156	0x3e495028	0.19659483
157	0x3d658143	0.056031477
158	0xbd6b0ecb	-0.057387155
159	0xbcd0205a	-0.025406051
160	0xbd7b6a16	-0.06138047
161	0xbd7ef2cc	-0.062243268
162	0xbdc77626	-0.09739332
163	0xbde70459	-0.11280126
164	0x3cf38407	0.029726041
165	0xbd944f40	-0.07241678
166	0x3defcde2	0.11709191
167	0x3db2827a	0.08716293
168	0xbdc81f05	-0.097715415
169	0x3df9dd2f	0.122003905
170	0xbd78b51b	-0.06071959
171	0x3da6d933	0.08146896
172	0x3c5ef39c	0.013607886
173	0xbdf36a31	-0.11885489
174	0x3dca4871	0.09877098
175	0x3d8dfccd	0.069329835
176	0xbd38efb3	-0.04515047
177	0x3db7be66	0.089718625
178	0x3da76488	0.08173472
179	0xbe5b857e	-0.21437642
180	0xbd926cf6	-0.07149689
181	0x3d90e7ce	0.07075463
182	0xbcbbe5b6	-0.022936683
183	0xbda49127	-0.08035498
184	0xbe5fb09b	-0.21844713
185	0x3d7de601	0.061986927
186	0x3d82717a	0.063693
187	0x3e6a46bc	0.22878546
188	0xbd896659	-0.067089744
189	0xbd7a882c	-0.06116502
190	0xbc7def1f	-0.015498905
191	0x3ddf8549	0.10914094
192	0xbdea3016	-0.11434953
193	0xbd9e824c	-0.07739696
194	0xbd086300	-0.03329754
195	0xbdd5aeb0	-0.104337096
196	0x3c8b38dc	0.016994886
197	0xbb1cea80	-0.0023943484
198	0x3bd91a00	0.006625414
199	0x3dd46d88	0.10372454
200	0xbd886488	-0.066598
201	0x3d4f64f5	0.05063339
202	0xbd5cf5e0	-0.053945422
203	0xbd4fda34	-0.050745204
204	0x3ddc44a8	0.10755283
205	0xbdbc8807	-0.09205633
206	0xbd3904fe	-0.045170777
207	0xbdcb9556	-0.09940593
208	0x3bb68b8a	0.0055708336
209	0xbd3b7964	-0.045770064
210	0xbce06d52	-0.027395878
211	0xbd8222c1	-0.06354285
212	0xbc21595e	-0.009847967
213	0x3cc01648	0.023448125
214	0x3db2e2cb	0.087346636
215	0x3d52c0cb	0.051453393
216	0xbe2fb96c	-0.17160577
217	0x3b8872b7	0.0041640657
218	0xbdd21962	-0.10258748
219	0x3cce2f48	0.02516903
220	0x3d575084	0.05256702
221	0xbd05e5bd	-0.0326898
222	0x3d850a68	0.064961255
223	0xbc3ecf90	-0.011646166
224	0x3ca1fd78	0.019774184
225	0xbdea3e72	-0.11437692
226	0xbc6d6452	-0.01448925
227	0x3daf20bd	0.08551166
228	0x3d8c9fb4	0.068663985
229	0xbd6ee897	-0.058327284
230	0x3e06c84b	0.13162343
231	0xbe046e27	-0.12932645
232	0xbd0c1e7c	-0.03420876
233	0xbe0e338b	-0.1388685
234	0xbcbd5518	-0.023111865
235	0xbdeb0994	-0.11476436
236	0xbd855b43	-0.065115474
237	0x3d762ec8	0.060103208
238	0xbd7d1d14	-0.06179531
239	0xbd958fc2	-0.0730281
240	0xbd9decf0	-0.07711208
241	0xbd8e7910	-0.069566846
242	0xbe0958be	-0.13412759
243	0x3df08d5f	0.117457144
244	0xbd99b8a6	-0.07505922
245	0xbd63f88c	-0.055656955
246	0xbdd79681	-0.10526753
247	0x3dabc0f6	0.08386414
248	0xbdf2689e	-0.118363604
249	0x3d5c4c78	0.053783864
250	0xbdd3a405	-0.103340186
251	0xbcc984c4	-0.02459944
252	0xbd3fcae0	-0.046824336
253	0xbc2638a0	-0.010145336
254	0xbdccebac	-0.10005888
255	0x3da7762e	0.08176838

encoder.2.bias f4 [64]
0	0x3da0a95c	0.07844803
1	0x3debe089	0.11517436
2	0xbdb3de94	-0.08782688
3	0xbdf70cab	-0.12062963
4	0x3e890c1f	0.2676706
5	0x3e2920c0	0.165164
6	0xbdc0e073	-0.0941781
7	0x3e16ecaf	0.14738725
8	0x3e3aa8d2	0.18228462
9	0x3eb1e88c	0.34747732
10	0xbdd86ded	-0.10567842
11	0x3e956ffc	0.29187
12	0x3ec92a51	0.39290097
13	0x3e855226	0.26039237
14	0x3ebe9610	0.37223864
15	0x3e50a254	0.20374423
16	0xbdebbd03	-0.115106605
17	0x3d62ee92	0.0554033
18	0xbcd78ae9	-0.026311355
19	0x3e023e19	0.12719001
20	0x3ece4475	0.40286604
21	0x3f00f0f6	0.5036768
22	0x3d4dfc6f	0.050289568
23	0xbdc844f0	-0.09778774
24	0xbeb66e89	-0.35631207
25	0xbcbe0dda	-0.023199964
26	0x3d8b7a7c	0.068104714
27	0x3e723d4c	0.23656195
28	0x3e28a277	0.16468225
29	0xbf053f51	-0.5204974
30	0x3dbfc7a0	0.09364247
31	0xbd85db33	-0.065359496
32	0x3da3d8ee	0.080003604
33	0x3e0e709a	0.13910142
34	0x3ecac014	0.3959967
35	0x3e3e2b66	0.18571243
36	0x3e2ee121	0.17078067
37	0x3e717688	0.23580372
38	0x3eaea876	0.341129
39	0xbd8e4f42	-0.06948711
40	0xbe90f344	-0.28310597
41	0x3e754233	0.23951034
42	0xbdd388e5	-0.10328845
43	0x3c8c1ea3	0.017104452
44	0x3e57a991	0.21060778
45	0x3e8fe30f	0.2810292
46	0x3ea3dd19	0.32004622
47	0x3e00fcc7	0.12596427
48	0x3e17135f	0.14753483
49	0xbe53c984	-0.20682341
50	0x3ec78348	0.38967347
51	0xbd8bea8b	-0.06831845
52	0x3e5b80ed	0.214359
53	0x3d413898	0.047173113
54	0x3e84f2f2	0.25966603
55	0x3eb6a448	0.35672212
56	0xbe293f10	-0.16527963
57	0x3e08cae3	0.13358645
58	0x3e728ffb	0.23687737
59	0xbe2047db	-0.1565241
60	0x3ec92f9c	0.39294136
61	0xbdda53ae	-0.10660492
62	0x3e618434	0.22023088
63	0xbe55f690	-0.20894837

encoder.4.weight f4 [64, 64]
0	0x3d2aaa9d	0.041666616
1	0x3d8e68f5	0.06953613
2	0x3d37623b	0.044771414
3	0xbdfad6ed	-0.12248025
4	0x3d0c49a8	0.03424993
5	0x3dd349c6	0.103168055
6	0x3ca62a7b	0.020283928
7	0xbd42f368	-0.04759541
8	0xbdc5d07c	-0.09658906
9	0xbddf9380	-0.10916805
10	0xbdc7b1d0	-0.09750712
11	0x3d18e57a	0.03732822
12	0x3cfd1787	0.030895008
13	0x3dca2a28	0.09871322
14	0x3e0d74ec	0.13814133
15	0x3d33a788	0.043860942
16	0xbddfaf39	-0.10922093
17	0x3e1e2180	0.15442467
18	0x3d5d3695	0.05400713
19	0xbdeab29e	-0.1145985
20	0xbc0f780d	-0.00875665
21	0x3cc02477	0.023454888
22	0xbdbc8bfa	-0.09206386
23	0xbb5283ad	-0.0032121942
24	0xbdfd8ed8	-0.12380761
25	0xbd3b31fd	-0.04570197
26	0x3daa839e	0.08325885
27	0xbe2df965	-0.16989668
28	0xbce55343	-0.027993804
29	0x3d1e7135	0.03868218
30	0xbe49395c	-0.19650787
31	0xbbde8ec3	-0.006791921
32	0x3d8ca23b	0.068668805
33	0xbda43abd	-0.08019016
34	0x3d3d7d00	0.046261787
35	0x3eca3e90	0.39500856
36	0x3ccbb22f	0.024865238
37	0x3ddbe3e6	0.107368276
38	0x3e547b04	0.20750052
39	0xbd07da9b	-0.033167463
40	0x3b96353e	0.0045839837
41	0xbe1cb479	-0.1530322
42	0xbbbedee9	-0.005824913
43	0xbd926884	-0.07148841
44	0xbeacdc84	-0.3376199
45	0x3e212d34	0.157399
46	0xbd60e471	-0.05490536
47	0xbef77b3d	-0.4833621
48	0x3d9ad1b4	0.07559529
49	0x3b2c964e	0.0026334706
50	0x3e065de5	0.13121755
51	0xbcb189a7	-0.021672083
52	0xbe94c67b	-0.2905768
53	0xbd762aa0	-0.060099244
54	0x3e1eddff	0.15514372
55	0x3d80a8fc	0.06282231
56	0x3d85c2f8	0.06531328
57	0xbe0426b8	-0.12905395
58	0xbe2ef6e7	-0.17086373
59	0xbe07798d	-0.13229962
60	0xbdb4c383	-0.088263534
61	0x3ddbdd07	0.10735517
62	0xbdfae2f3	-0.122503184
63	0xbe15fdd8	-0.14647615
64	0xbd2bb068	-0.04191628
65	0xbd1249fb	-0.035715085
66	0x3de37438	0.11106151
67	0x3db8d31a	0.090246394
68	0x3d0b6be2	0.034038432
69	0x3d2b0730	0.0417549
70	0xbcb15db3	-0.021651125
71	0xbdea86fa	-0.11451526
72	0xbcc3afad	-0.02388748
73	0x3e7f1697	0.24910961
74	0x3dede1b2	0.116153136
75	0xbcfa89cf	-0.03058329
76	0xbd69cf68	-0.057082564
77	0xbb065952	-0.0020500016
78	0xbda610dc	-0.081086844
79	0x3d24803e	0.040161364
80	0x3cac9c40	0.0210706
81	0x3c138765	0.009004449
82	0xbb9d7851	-0.0048056026
83	0x3dace1b2	0.084414855
84	0x3da6f2f6	0.0815181
85	0xbca26d5d	-0.01982754
86	0xbb96a46d	-0.004597238
87	0x3d33fdec	0.04394333
88	0x3e576e87	0.21038257
89	0x3c95a5ff	0.01826763
90	0x3dbaf8b5	0.09129468
91	0xbe0a2c29	-0.13493408
92	0xbdaa26d0	-0.08308184
93	0x3cddfe9a	0.027098943
94	0xbd918e82	-0.07107259
95	0x3e43cd52	0.19121292
96	0x3df424b7	0.11921065
97	0xbe911e98	-0.28343654
98	0xbd2a20f0	-0.041535318
99	0x3d51c647	0.051214483
100	0xbe0a0a9d	-0.13480611
101	0xbd836fd7	-0.06417816
102	0xbd79e9cf	-0.061013993
103	0x3d4db0d0	0.05021745
104	0x3cbe2823	0.023212498
105	0xbcfb81a1	-0.03070146
106	0xbc9ac4ef	-0.018892733
107	0xbdf129f0	-0.11775577
108	0xbcbd45d9	-0.023104595
109	0x3dbe4773	0.092909716
110	0xbc64ddd9	-0.013968908
111	0x3d8847ae	0.06654297
112	0x3d6da489	0.05801824
113	0x3ddb0a79	0.10695357
114	0x3d5ad1a7	0.053422596
115	0xbd1cf190	-0.03831631
116	0xbdee43db	-0.11634036
117	0xbd6ac7d7	-0.05731949
118	0x3e21bcbf	0.15794657
119	0xbd7753b5	-0.060382564
120	0x3d9184c0	0.07105398
121	0x3cdea53a	0.027178396
122	0x3d878723	0.06617572
123	0x3d839c3e	0.06426285
124	0xbdaa6e2f	-0.08321797
125	0x3cd0961b	0.0254622
126	0xbd19e137	-0.037568297
127	0x3da56b13	0.080770634
128	0x3c9bdbd0	0.019025713
129	0xbcb0255a	-0.021502186
130	0xbe017c67	-0.12645112
131	0x39f81800	0.00047320127
132	0xbdcd8f57	-0.100371055
133	0xbb736e0d	-0.0037144453
134	0xbb495240	-0.003071919
135	0x3d8724be	0.06598805
136	0xbe322a7d	-0.1739902
137	0xbdf7b118	-0.12094325
138	0x3d6e1a7e	0.058130734
139	0xbcb7244d	-0.022356177
140	0xbd9b794b	-0.07591494
141	0x3dac9578	0.084269464
142	0xbe147bd4	-0.14500362
143	0xbdf41a72	-0.119191065
144	0x3c6f871c	0.014619615
145	0x3a171ae1	0.0005764198
146	0x3d6241b0	0.055238426
147	0xbdb40eff	-0.08791923
148	0x3c4be4b1	0.012444661
149	0xbcf9ec92	-0.030508313
150	0xbdec03ee	-0.11524187
151	0xbd860f22	-0.06545855
152	0x3d8a4839	0.06752057
153	0xbd1307de	-0.035896175
154	0xbda67653	-0.08128037
155	0xbb98c05f	-0.0046616043
156	0xbcc4568d	-0.023967052
157	0x3d938097	0.07202261
158	0xbdaebcf8	-0.08532137
159	0x3d8a9d46	0.06768279
160	0xbce84d0c	-0.028357051
161	0x3e0873ac	0.13325375
162	0x3c71e59c	0.014764216
163	0xbdfe3db0	-0.1241411
164	0x3dd8c28c	0.10583982
165	0xbdfa99cb	-0.12236365
166	0xbd481af8	-0.048853844
167	0xbd2f7b66	-0.04284229
168	0xbc027b54	-0.007963974
169	0x3da3b224	0.07992962
170	0xbd3c1914	-0.045922354
171	0xbcb4b3d8	-0.022058412
172	0xbc5f37c3	-0.0136241345
173	0xbdac2b89	-0.08406741
174	0x3da32e07	0.079677634
175	0xbd028ff1	-0.031875554
176	0xbc92403a	-0.017852891
177	0xbddaad1c	-0.10677549
178	0x3c863f49	0.016387599
179	0x3c1012a0	0.008793503
180	0x3d95c463	0.073128484
181	0x3dd50a81	0.10402394
182	0xbdc1300d	-0.09432993
183	0xbe1f2fee	-0.15545627
184	0xbdf619d0	-0.12016642
185	0xbe183d72	-0.1486719
186	0xbd2a0142	-0.041505106
187	0xbd0ddd30	-0.03463477
188	0x3d246fa2	0.040145524
189	0x3dcd1ff2	0.10015859
190	0xbddbb432	-0.10727729
191	0x3c18f45c	0.009335604
192	0xbd9b3704	-0.07578853
193	0xbd42ab51	-0.04752666
194	0x3db47394	0.08811107
195	0xbd80cdf6	-0.06289284
196	0x3da96bb3	0.08272495
197	0xbe2a033d	-0.16602798
198	0x3d46a293	0.048494887
199	0x3d9395cd	0.072063066
200	0xbd6b84fb	-0.057499867
201	0xbd0393dc	-0.03212343
202	0xbdab29d6	-0.08357589
203	0xbe0c95e5	-0.13729055
204	0xbd44adf4	-0.048017457
205	0x3d3ecbb9	0.046581004
206	0x3cf19c4a	0.02949347
207	0xbd00691e	-0.031350248
208	0x3d9d354b	0.076761805
209	0xbd1fb423	-0.03899015
210	0xbda39b85	-0.07988647
211	0x3d824d83	0.063624404
212	0xbdc466af	-0.09589898
213	0x3d7cf984	0.061761394
214	0xbcac9ff7	-0.021072371
215	0x3cd92a2a	0.026509363
216	0x3d58469f	0.052801725
217	0xbb378807	-0.0028004663
218	0xbdd799bf	-0.105273716
219	0xbd02b9a3	-0.03191532
220	0x3c695829	0.01424221
221	0xbcf73f34	-0.030181505
222	0x3ced86d8	0.028994963
223	0xbde97982	-0.11400129
224	0x3dc0433d	0.09387825
225	0xbdca0f00	-0.09866142
226	0xbd8ddbf2	-0.06926717
227	0x3dd9cb93	0.10634532
228	0x3ceebc5f	0.029142557
229	0x3a82b5e1	0.0009972417
230	0xbcced2ed	-0.025247062
231	0xbd8b8302	-0.06812097
232	0x3cb6cbdb	0.022314003
233	0xbd9f861d	-0.07789252
234	0xbd0767f8	-0.033058137
235	0xbd1f8f86	-0.038955234
236	0xbdb35b24	-0.08757618
237	0xbd9acd3a	-0.07558675
238	0xbca02388	-0.019548193
239	0xbbb78acc	-0.0056012627
240	0xbd28c4d0	-0.04120332
241	0x3d13d753	0.03609402
242	0xbd19cfef	-0.037551817
243	0xbca40900	-0.020023823
244	0xbcab7174	-0.020928122
245	0x3d9e7459	0.07737035
246	0xbcdb9aa2	-0.026807133
247	0xbe1a175d	-0.15047975
248	0xbd89f74a	-0.0673662
249	0xbd987554	-0.074442536
250	0xbcea6a18	-0.028615043
251	0xbd5be85c	-0.053688392
252	0xbb17aec5	-0.0023144942
253	0x3d393c99	0.045223806
254	0xbe1b8160	-0.15186071
255	0xbda300c9	-0.07959134

encoder.4.bias f4 [64]
0	0x3d7cfeb3	0.061766338
1	0xbe69ac31	-0.22819592
2	0xbe07623c	-0.13221067
3	0x3cd26928	0.025684908
4	0x3dd395a5	0.10331277
5	0x3d693d66	0.05694332
6	0xbe135980	-0.1438961
7	0xbda76e9d	-0.08175395
8	0x3e20b02a	0.15692201
9	0x3d62540e	0.055255942
10	0xbcfd1a8f	-0.030896453
11	0x3cdeef63	0.027213758
12	0xbe632439	-0.22181787
13	0x3e1f3ae3	0.15549807
14	0xbcf520e8	-0.029922917
15	0xbdb50606	-0.088390395
16	0x3e3703e6	0.17872581
17	0xbe06bcad	-0.13157912
18	0xbc0b8856	-0.008516392
19	0x3e97a3d2	0.29617172
20	0x3e908859	0.28229025
21	0xbd5a1aa3	-0.05324806
22	0x3e6329fe	0.22183987
23	0xbd81f02a	-0.06344636
24	0xbdd4b3ba	-0.103858426
25	0x3d941692	0.072308674
26	0x3eb0c173	0.3452259
27	0xbd7d69c4	-0.061868444
28	0x3d97345d	0.073830344
29	0x3eafe943	0.34357652
30	0x3e4bf407	0.19917308
31	0xbe2654d3	-0.16243295
32	0xbdf996c9	-0.12186963
33	0x3e117b64	0.14207226
34	0x3d585ee0	0.052824855
35	0x3eb212db	0.3478001
36	0x3e7984e4	0.243671
37	0x3ca45c1b	0.02006345
38	0x3cabf2d9	0.020989822
39	0x3dd8c1e5	0.105838574
40	0xbc633452	-0.013867455
41	0x3e3ce80b	0.18447892
42	0x3dbac930	0.09120405
43	0xbdbc1f23	-0.09185626
44	0x3e4caf25	0.19988687
45	0x3eaf60cb	0.34253535
46	0xbe096e71	-0.13421036
47	0xbdedfb23	-0.11620166
48	0x3db383f4	0.087654024
49	0xbcab3bf6	-0.020902615
50	0x3ede8f12	0.4346853
51	0x3e009f05	0.12560661
52	0xbe063d65	-0.13109358
53	0x3e856897	0.26056358
54	0x3e635209	0.22199263
55	0x3deea8f5	0.1165332
56	0x3e198623	0.14992575
57	0x3daad30e	0.08341037
58	0xbdec83e4	-0.11548594
59	0x3e1234fe	0.14278027
60	0xbcf122e4	-0.029435582
61	0xbd49967a	-0.04921577
62	0x3f44fff5	0.7695306
63	0xbd650104	-0.05590917

mu_layer.weight f4 [15, 64]
0	0x3d5dbd4e	0.054135613
1	0x3d5a37a0	0.053275704
2	0xbd30771d	-0.043082345
3	0x3d47e965	0.048806567
4	0x3cd51814	0.026012458
5	0x3decb20e	0.11557399
6	0xbd855af4	-0.065114886
7	0xbdd91ed5	-0.10601584
8	0xbc34c31d	-0.011032847
9	0xbd27f10b	-0.04100136
10	0x3ca02643	0.019549495
11	0x3c9484c6	0.018129718
12	0x3ba6b45b	0.005087418
13	0x3d27cafd	0.04096507
14	0xbd9f0114	-0.077638775
15	0x3d0b8052	0.034057923
16	0xbd41b5f3	-0.04729266
17	0xbdb650de	-0.08902143
18	0x3cfd6140	0.030930161
19	0xbc894a44	-0.016759045
20	0x3ba3a63c	0.004994182
21	0xbddd9732	-0.10819854
22	0x3d0373c8	0.03209284
23	0x3dbd43fe	0.09241484
24	0xbd886bca	-0.06661184
25	0xbdd80a8e	-0.10548888
26	0x3ddba661	0.10725094
27	0x3d833b6a	0.06407817
28	0xbda4f8fb	-0.08055302
29	0x3d42e68b	0.047583144
30	0xbcc9d22e	-0.024636354
31	0x3d942297	0.0723316
32	0xbd8641d9	-0.06555528
33	0x3d916970	0.07100189
34	0x3d9656f3	0.07340803
35	0x3d61d8bd	0.05513834
36	0x3d9e3733	0.07725372
37	0x3dcfa8dd	0.1013963
38	0x3cbe9e17	0.023268742
39	0x3dce5eb0	0.10076654
40	0xbc949466	-0.018137168
41	0xbd88ccce	-0.066796884
42	0x3caa4c54	0.02078835
43	0x3d229aef	0.039698537
44	0xbe413342	-0.1886721
45	0x3da16264	0.07880095
46	0xbd165ae6	-0.03670778
47	0x3dc0ca37	0.094135694
48	0x3c4f7a1a	0.012663389
49	0x3d507cd5	0.0509003
50	0xbde7b7a4	-0.113143235
51	0xbd878f30	-0.06619108
52	0xbb836610	-0.0040099695
53	0xbca047a3	-0.019565409
54	0xbced603c	-0.028976552
55	0xbcf367d3	-0.029712593
56	0xbd06f0ec	-0.032944605
57	0xbd42a53d	-0.047520865
58	0xbd0b3be1	-0.03399265
59	0xbc50bb5a	-0.012739981
60	0xbcef450b	-0.029207727
61	0xbbd07567	-0.0063616517
62	0x3d95dc2a	0.073173836
63	0x3d0c6e69	0.034284983
64	0xbc3e1778	-0.011602275
65	0xbd33771f	-0.043814775
66	0x3d21f945	0.039544363
67	0xbd8e52e9	-0.069494076
68	0xbaf1d7cd	-0.0018451154
69	0xbdbae4ae	-0.091256484
70	0xbcecf2aa	-0.028924305
71	0xbdafd3c4	-0.08585313
72	0x3d1b6a33	0.037943076
73	0xbd74ae22	-0.05973638
74	0x3ab6876d	0.0013925858
75	0xbb5ae144	-0.003339843
76	0x3c0e873f	0.008699237
77	0xbc26063e	-0.010133324
78	0x3d503080	0.050827503
79	0xbc51b6d3	-0.012799936
80	0x3d455cb0	0.048184097
81	0x3d08fb5b	0.033442836
82	0xbb99c246	-0.0046923487
83	0x3cc28859	0.023746656
84	0xbc9aeb8e	-0.01891115
85	0x3d36863f	0.04456162
86	0x3aa040d8	0.0012226356
87	0x3d9a017d	0.07519815
88	0xbdb50ebb	-0.088407
89	0x3b89dfa8	0.00420757
90	0xbd73fd7c	-0.059567913
91	0xbd2d5bb6	-0.04232379
92	0x3d3ba766	0.04581394
93	0xbbeffe17	-0.007323991
94	0xbc1b3535	-0.009473135
95	0x3ddae7d8	0.10688752
96	0xbd84d237	-0.06485408
97	0xbc842385	-0.016130218
98	0xbd5a0cbb	-0.053234797
99	0x3befa05f	0.007312819
100	0xbce3a156	-0.027786892
101	0x3b2ac5da	0.002605787
102	0x3c9137fc	0.01772689
103	0xbd7d03f0	-0.061771333
104	0x3ddce579	0.10785956
105	0x3d327aca	0.043574132
106	0x3caef7e3	0.021358436
107	0x3d7624e1	0.060093764
108	0x3d7c9b18	0.061671346
109	0xbda1877d	-0.078871705
110	0x3d36f451	0.044666592
111	0xbcd58961	-0.026066484
112	0x3ced0947	0.028935088
113	0xbca914c0	-0.020639777
114	0x3dae968c	0.08524808
115	0x3c15ceee	0.009143574
116	0xbe3fd5b0	-0.18733859
117	0x3d003c4b	0.0313075
118	0xbc9efd3e	-0.019407865
119	0xbc92f0b7	-0.017937047
120	0xbb781f64	-0.0037860507
121	0x3ce7a622	0.02827746
122	0xbc9563c1	-0.018236043
123	0xbc9b4790	-0.018955022
124	0x3a9a001b	0.0011749299
125	0xbda0c168	-0.07849389
126	0xbd4b0721	-0.049567346
127	0xbdac0001	-0.08398438
128	0xbcf4f278	-0.029900774
129	0xbda28183	-0.07934859
130	0xbdd8609a	-0.105653
131	0x3d26cef5	0.040724713
132	0xbd849329	-0.06473381
133	0xbdd2d633	-0.102947615
134	0x3df54156	0.119753525
135	0xbde67068	-0.112519085
136	0x3b8badce	0.0042626625
137	0x3c59e52f	0.0132992705
138	0xbc28f97c	-0.010313388
139	0xbca4cda6	-0.020117592
140	0x3d324183	0.043519508
141	0xbda62c10	-0.08113873
142	0xbd82ab04	-0.06380275
143	0x3c16dcec	0.009207945
144	0xbd43a2c1	-0.047762636
145	0xbda32927	-0.079668336
146	0x3c7e855c	0.015534725
147	0xbcb7f345	-0.022454867
148	0xbcc329e1	-0.02382368
149	0xbd706586	-0.05869057
150	0x3d1b1300	0.037859917
151	0x3de2081d	0.11036704
152	0xbdbc2984	-0.09187606
153	0x3d049d9d	0.032376874
154	0xbc097158	-0.00838884
155	0xbd4834d3	-0.048878502
156	0x3dae8126	0.08520727
157	0xbd839c2b	-0.06426271
158	0xbc564dc8	-0.013080068
159	0x3de881be	0.11352871
160	0xbd38301e	-0.044967763
161	0xbc0ebe8d	-0.008712423
162	0x3dba83b9	0.09107155
163	0xbc8a86ff	-0.016910074
164	0xbd24f32a	-0.04027096
165	0xbd32792c	-0.04357259
166	0xbd9552a4	-0.07291153
167	0xbcbf76e3	-0.02337212
168	0x3bb9b029	0.005666752
169	0x3c82e8e8	0.015980199
170	0x3c9a59cf	0.018841652
171	0xbd8fa257	-0.07013386
172	0x3d972ae0	0.07381225
173	0x3d51a835	0.051185805
174	0x3d58a165	0.052888293
175	0xbc8314e7	-0.016001178
176	0x3b30dbba	0.0026986436
177	0xbbb2d2ea	-0.005457272
178	0x3da90646	0.0825315
179	0xbc74648c	-0.01491655
180	0xbd53857f	-0.051640984
181	0xbc499638	-0.012303881
182	0x3b482edd	0.003054551
183	0xbd96b0af	-0.073579185
184	0x3c8f6b80	0.017507315
185	0xba4ab64a	-0.00077328517
186	0x3d1ce415	0.038303453
187	0xbc68ef4a	-0.014217207
188	0x3cc57ee8	0.024108365
189	0x3c959e4e	0.018263962
190	0xbda43411	-0.080177434
191	0xbdb868ac	-0.090043396
192	0x3ec0832f	0.37600085
193	0xbdf2b764	-0.11851385
194	0x3c1f89c0	0.009737432
195	0x3d66df71	0.056365434
196	0x3e828148	0.2548926
197	0x3db4c6a4	0.0882695
198	0xbdcaf98a	-0.09910877
199	0xbdd7bf9f	-0.10534596
200	0xbe595953	-0.2122548
201	0xbdc80c9c	-0.0976803
202	0x3d2fddff	0.04293632
203	0x3e8e145d	0.2774991
204	0xbeb49a10	-0.3527379
205	0x3edc4c0e	0.43026775
206	0x3deae08e	0.11468612
207	0xbdb6fa58	-0.08934468
208	0xbe055f74	-0.13024694
209	0x3cd80a93	0.02637223
210	0xbf315550	-0.692708
211	0xbe5aed9e	-0.21379706
212	0x3ea3dd25	0.32004657
213	0x3c287b02	0.010283234
214	0x3f049bad	0.5180004
215	0x3ae027fa	0.0017101758
216	0x3ccfc0de	0.02536052
217	0xbe5ffcf8	-0.21873844
218	0x3f3d1491	0.73859507
219	0x3d17c014	0.037048414
220	0xbe8af53b	-0.2714022
221	0x3e8daa52	0.27669007
222	0xbd89f2ba	-0.067357495
223	0x3da4d57b	0.08048531
224	0x3bcf669f	0.006329372
225	0xbe98c2d3	-0.2983614
226	0xbe13f177	-0.1444758
227	0xbdb710e1	-0.08938766
228	0xbdc79877	-0.09745877
229	0x3ced10b5	0.02893863
230	0xbdba9498	-0.09110373
231	0x3c49ab8b	0.012308965
232	0x3da9f0e7	0.082979016
233	0x3f2000fe	0.62501514
234	0xbc08a195	-0.008339305
235	0xbbddb5da	-0.006766063
236	0x3e3b8f01	0.1831627
237	0x3e281431	0.16413952
238	0x3bc1bb48	0.0059122182
239	0xbda1e486	-0.079049155
240	0x3d83484b	0.06410273
241	0xbd672883	-0.05643512
242	0x3e805326	0.25063437
243	0xbe159940	-0.14609241
244	0x3b9acf98	0.004724454
245	0x3dda688a	0.106644705
246	0x3d461a9d	0.048365224
247	0xbd9bdfd4	-0.07611051
248	0xbca08f1b	-0.019599488
249	0xbe88975c	-0.26677978
250	0xbd478e2a	-0.048719563
251	0xbdfac97f	-0.122454636
252	0x3eb60a0a	0.35554534
253	0xbdd3dc0a	-0.103447035
254	0x3e690cd0	0.22758794
255	0xbd74fa0f	-0.059808787

mu_layer.bias f4 [15]
0	0xbdfc9c8b	-0.12334546
1	0x3d891f2c	0.06695399
2	0x3e46f516	0.1942943
3	0x3e10dc00	0.14146423
4	0xbe6ce692	-0.2313483
5	0xbe4c1bb2	-0.1993244
6	0xbed34d88	-0.4127009
7	0xbe273507	-0.16328822
8	0xbe9a2f84	-0.30114377
9	0xbca969ae	-0.020680275
10	0x3e01925e	0.12653491
11	0xb988bb7a	-0.00026079622
12	0x3d741dd9	0.059598777
13	0x3d99e9da	0.07515307
14	0x3e06126c	0.13092965

logvar_layer.weight f4 [15, 64]
0	0x3baa4c65	0.005197095
1	0x3b85eb59	0.0040868935
2	0x3dd012c2	0.10159828
3	0x3d8ae2c2	0.06781532
4	0x3b3efab0	0.002914112
5	0x3bf1112d	0.007356784
6	0x3c8e5385	0.01737381
7	0xbe045072	-0.12921312
8	0x3c497044	0.012294833
9	0x3c6f7222	0.014614614
10	0xbba1ed65	-0.0049416297
11	0xbae8152a	-0.0017706503
12	0xbc4e43cd	-0.012589407
13	0x3cdd718f	0.027031688
14	0xbd2c4e64	-0.042066947
15	0xbcec5022	-0.028846804
16	0x3c3b218f	0.011421575
17	0xbcc2d266	-0.023781966
18	0xbc1852ed	-0.009297115
19	0x3c469d43	0.012122455
20	0x3cab05f7	0.020876868
21	0x3db47f2c	0.088133186
22	0xbc36c1e9	-0.01115463
23	0xbd365604	-0.044515625
24	0xbdc8b41e	-0.097999796
25	0x3c9edfdd	0.019393856
26	0xbc8ffe56	-0.017577332
27	0xbd7951ca	-0.060869016
28	0xbcdbf43e	-0.026849862
29	0x3b694a22	0.0035597165
30	0xbbdac5c1	-0.006676406
31	0x3db5fa4d	0.08885632
32	0xbdb1fb80	-0.08690548
33	0xba7a270c	-0.00095425616
34	0xbd8ecc94	-0.06972614
35	0xbb4e0ae9	-0.0031439608
36	0xbc0b7237	-0.008511118
37	0xbc81aa84	-0.015828378
38	0xbaf0e604	-0.0018379097
39	0x3bce924a	0.00630406
40	0xbcddf36e	-0.027093615
41	0xbbcfb24e	-0.0063383942
42	0xbd502190	-0.050813258
43	0x3c203654	0.009778578
44	0x3d1f34ba	0.038868643
45	0x3ca36569	0.019945817
46	0x3b84179e	0.0040311357
47	0xbda30b42	-0.07961132
48	0x3c52ac68	0.012858488
49	0xbc5a34e6	-0.013318276
50	0xbcf25507	-0.02958156
51	0xbb880217	-0.0041506398
52	0xbe006c88	-0.12541401
53	0xbb3d69f9	-0.0028902276
54	0x3ce31d83	0.027724033
55	0x3aff8434	0.0019494356
56	0x3ca6b3b9	0.02034937
57	0x3b2553e3	0.0025227002
58	0x3c48adc1	0.012248457
59	0x3b0c7b87	0.0021435933
60	0xbbe11c83	-0.006869854
61	0xbda024e2	-0.07819535
62	0xbcabb2ad	-0.020959223
63	0x3d40781e	0.046989553
64	0x3ae43455	0.0017410616
65	0xbc83c08d	-0.016083026
66	0x3c812d1f	0.015768586
67	0x3c290a1d	0.010317353
68	0x3799a3b0	1.8315244e-05
69	0x3d9e0b0a	0.07716949
70	0x3dd6847a	0.10474487
71	0x3e0c56c6	0.13704976
72	0x3c669ef0	0.01407598
73	0xbd0bd8e4	-0.03414239
74	0xba70efc4	-0.00091910013
75	0x3c39cd22	0.011340411
76	0xbc873ab9	-0.016507493
77	0xbc294cea	-0.010333279
78	0x3dd8622e	0.10565601
79	0xbc344e89	-0.011005052
80	0x3b3fba0b	0.0029255177
81	0x3e0a4aaf	0.13505052
82	0x3af2836a	0.0018502299
83	0x3bc24541	0.005928666
84	0xbc7986d1	-0.015229897
85	0x3d09f38e	0.033679537
86	0xbb284783	-0.002567739
87	0x3c5f477b	0.013627882
88	0xbcd004d5	-0.02539293
89	0xbc7c7bcc	-0.015410375
90	0xbbf081d3	-0.007339695
91	0xbdd7b81e	-0.105331644
92	0xba8e87a7	-0.0010874168
93	0xbc71cc95	-0.014758249
94	0xbb18f78a	-0.0023340904
95	0x3c050a2d	0.008120102
96	0x3d52ee71	0.051496927
97	0xba486833	-0.00076449214
98	0x3d865271	0.06558693
99	0x3c015957	0.007894835
100	0xba2ba013	-0.0006546985
101	0xbc451e0c	-0.0120310895
102	0x3c6271de	0.013821093
103	0x3ba06aa8	0.004895527
104	0xbc453929	-0.012037554
105	0xbc1c9faa	-0.009559551
106	0xbe7f7ff1	-0.2495115
107	0x397b7f9a	0.0002398476
108	0x3c9e886a	0.019352157
109	0xbc5d9eeb	-0.0135266585
110	0xbd89b463	-0.06723859
111	0xbb5d94a4	-0.003381052
112	0xbb5800f8	-0.0032959562
113	0xba11433a	-0.00055413286
114	0xbc40f707	-0.011777646
115	0x3bee24cf	0.0072675715
116	0x3c9e4e06	0.019324314
117	0xbb468b03	-0.003029526
118	0xbbff688e	-0.0077944463
119	0x3be46616	0.0069701774
120	0xbc82154c	-0.015879296
121	0xbc09da8d	-0.008413923
122	0x3b35c05a	0.0027733059
123	0x3c03a426	0.0080347415
124	0x3b0de4e7	0.002165133
125	0x3d3de7db	0.046363693
126	0xbd211eb2	-0.039335914
127	0xbd8e62fd	-0.06952474
128	0x3a8c735d	0.0010715533
129	0xbbb76d85	-0.0055977725
130	0xbdad2f3e	-0.08456276
131	0x3b0c3123	0.0021391592
132	0x3bc929dd	0.0061390237
133	0x3ccc6ac2	0.02495325
134	0xbd470ac3	-0.048594248
135	0x3d8efb08	0.06981474
136	0x3af82e1b	0.0018934639
137	0xbc84e2ef	-0.016221492
138	0xbb5aae1d	-0.003336794
139	0x3b6fa86c	0.0036568893
140	0x3cafc0bd	0.02145421
141	0x3a0c4b52	0.00053518
142	0x3b38e540	0.0028212816
143	0xbcb7a8df	-0.022419391
144	0xbac3feb4	-0.0014953227
145	0x3d995018	0.0748598
146	0x3c09e617	0.008416674
147	0x3bb8fd1a	0.0056454064
148	0xbb3cec7d	-0.0028827481
149	0x3e324687	0.17409717
150	0xbb5819f3	-0.0032974451
151	0xbd8cc78b	-0.06873997
152	0x3db19c33	0.08672371
153	0xbb7dab52	-0.0038706851
154	0x3b99dfd9	0.004695874
155	0xbcdef85c	-0.027218036
156	0x3828623c	4.014581e-05
157	0xbc8d48c0	-0.017246604
158	0x3be6ff85	0.0070495033
159	0x3daa7a2b	0.08324083
160	0x3d4aec45	0.04954173
161	0x3c3b51ea	0.011433104
162	0x39df3072	0.0004256997
163	0x3b1c2912	0.002382819
164	0xbbefb794	-0.0073155854
165	0xbc130f36	-0.008975795
166	0xbb5fdf50	-0.0034160204
167	0xbc42e935	-0.011896421
168	0xbc9e3bcc	-0.019315623
169	0xbc198821	-0.009370835
170	0xbe1b6c85	-0.15178116
171	0xbd155b8b	-0.036464255
172	0xbc840bcc	-0.016118906
173	0xbad0fc22	-0.0015944282
174	0xbd5416bd	-0.051779497
175	0x3c0c7d94	0.008574862
176	0xbb813300	-0.0039428473
177	0x3af9f894	0.0019071274
178	0x3caabcfa	0.020842064
179	0x3b545c4c	0.0032403646
180	0x3d022e8f	0.031782683
181	0xbc3f875f	-0.01168999
182	0xbbfb75e4	-0.0076739658
183	0xbbe2dfc1	-0.006923646
184	0xbc836f43	-0.016044265
185	0x3a1aebfc	0.0005909798
186	0xbc3c9f05	-0.011512523
187	0x3af81890	0.0018928219
188	0x3b2e757a	0.0026620314
189	0x3d241853	0.04006226
190	0xbc6c0fcc	-0.014408063
191	0x3db2e445	0.08734945
192	0xbb124082	-0.0022316282
193	0x3de49770	0.11161697
194	0x3dd2c6f5	0.10291854
195	0xbda5fb6c	-0.081045955
196	0xbdf28d3b	-0.11843344
197	0x3db92904	0.09041026
198	0xbd822887	-0.06355386
199	0x3c2b358e	0.01044978
200	0xbe51fecb	-0.20507352
201	0xbe04bd8f	-0.12962936
202	0x3dd8dc72	0.105889216
203	0x3dd912fb	0.10599323
204	0xbd5d184a	-0.053978242
205	0xbd7aaf81	-0.06120253
206	0x3d154d0c	0.03645043
207	0xbe47cd95	-0.19512017
208	0xbe146e6c	-0.14495248
209	0x3c8ebb4d	0.017423296
210	0x3e8b6735	0.27227178
211	0xbd4316db	-0.04762922
212	0x3c44d83a	0.012014443
213	0xbd6bbd67	-0.057553675
214	0x3e1ed837	0.15512167
215	0xbe305708	-0.172207
216	0x3cf97fe0	0.030456483
217	0xbe0d3778	-0.13790691
218	0xbd0b4e28	-0.034010082
219	0x3db83ae4	0.089956075
220	0x3c553124	0.013012204
221	0xbeac7aa4	-0.33687317
222	0xbd6e2507	-0.05814078
223	0x3d80c435	0.062874235
224	0xbdb1b6c6	-0.086774394
225	0xbdd834bc	-0.10556933
226	0xbba29535	-0.0049616345
227	0xbd14cd09	-0.03632835
228	0xbd123346	-0.03569343
229	0xbeae1c85	-0.34006134
230	0xbd29b629	-0.041433487
231	0x3d151ff7	0.036407437
232	0x3cbe9811	0.02326587
233	0x3dedde86	0.116147086
234	0xbe4f4426	-0.2024084
235	0x3cb474f5	0.022028426
236	0xbe1158d2	-0.14194039
237	0xbeb300c8	-0.34961534
238	0x3d8ad6c8	0.067792475
239	0xbd819a1e	-0.06328224
240	0x3e9ea26b	0.3098329
241	0x3d70030e	0.058596663
242	0xbe3200ed	-0.17383166
243	0x3dc54aab	0.096333824
244	0x3cdc8fea	0.026924092
245	0x3d58034f	0.05273753
246	0xbe0fc412	-0.14039639
247	0xbd4b3724	-0.049613133
248	0xbd1c6889	-0.03818563
249	0x3d691d63	0.05691279
250	0xbd8628ab	-0.065507255
251	0xbccd85e6	-0.025088262
252	0xbda3b68d	-0.07993803
253	0x3ce08e45	0.02741159
254	0xbf0de5ef	-0.55428976
255	0x3dcff560	0.101542234

logvar_layer.bias f4 [15]
0	0x39b43b2c	0.00034376362
1	0x3dc350cb	0.095368944
2	0x3d2840c9	0.04107741
3	0xbeba32c2	-0.3636685
4	0x3da41220	0.080112696
5	0x3d29ea19	0.04148302
6	0xbedccb2e	-0.43123764
7	0xbf1254cb	-0.57160634
8	0xbd02455d	-0.03180443
9	0x3c03d7b3	0.008047032
10	0x3d2911da	0.04127679
11	0xbf852a30	-1.04035
12	0xbf71b968	-0.9442353
13	0x3cafe0e3	0.021469539
14	0xbf20d543	-0.6282541

decoder.0.weight f4 [64, 15]
0	0x3b596029	0.0033168888
1	0xbc205002	-0.0097847
2	0x3bfb9309	0.00767744
3	0x3e9b52e2	0.30336672
4	0x39b37da4	0.0003423515
5	0xbc297242	-0.010342183
6	0x3edc1ed4	0.4299227
7	0x3ed968bf	0.42462727
8	0xbaf14c39	-0.0018409557
9	0xbc1d27ee	-0.0095920395
10	0xbb8bb83f	-0.004263907
11	0xbece613f	-0.40308568
12	0x3f71dbc0	0.94475937
13	0x3b876b6c	0.0041326787
14	0x3eb9eef9	0.36315134
15	0x3bba790c	0.0056906994
16	0xbc964dcf	-0.018347649
17	0x3c280a7a	0.010256404
18	0xbed36c2a	-0.4129346
19	0x3c9c8c89	0.019109981
20	0xbbf3caea	-0.0074399607
21	0x3ec00167	0.3750107
22	0xbf208a15	-0.62710696
23	0xbb5fa7d2	-0.0034127128
24	0xbc8266d8	-0.01591818
25	0xbc48992d	-0.012243551
26	0xbeacfba8	-0.33785748
27	0x3f7ab650	0.97934437
28	0x3b22127d	0.0024730258
29	0xbe46838c	-0.19386119
30	0xbadb3392	-0.0016723743
31	0xbb7329f3	-0.003710386
32	0x3bda1897	0.0066557634
33	0x3ee2a020	0.4426279
34	0xbba5b56e	-0.0050570285
35	0xbca5cab3	-0.020238256
36	0x3ed0a2bb	0.40749153
37	0xbede71fb	-0.43446335
38	0xbab2e40d	-0.0013648287
39	0xbb6380d0	-0.003471423
40	0x3b47b6a2	0.0030473848
41	0x3dbfb460	0.09360576
42	0xbeb8c0f5	-0.36084715
43	0xbae3e50e	-0.0017386989
44	0xbf197607	-0.5994572
45	0x3b8d9164	0.0043203104
46	0x3b7c15fa	0.0038465247
47	0xbc1ad93c	-0.009451207
48	0x3e22dc7b	0.15904419
49	0xbc18b18f	-0.009319677
50	0xbbccf58b	-0.006254857
51	0x3e8dcc27	0.27694818
52	0xbdbe0be4	-0.09279612
53	0xbbc8fb97	-0.0061335075
54	0xbbfb6500	-0.0076719522
55	0xbc04ea97	-0.008112571
56	0x3f4dec7c	0.8043897
57	0x3f7abf9b	0.97948617
58	0x3c67d9e9	0.014151075
59	0xbec396f9	-0.3820112
60	0xbb657f3b	-0.0035018462
61	0x3c50ecf0	0.012751803
62	0xbbe3edbc	-0.0069558304
63	0xbea76353	-0.32692966
64	0x3c67da0c	0.0141511075
65	0xbc30218a	-0.010750184
66	0xbee8c296	-0.45460957
67	0xbeba285f	-0.36358926
68	0xbc55c794	-0.013048071
69	0x3cb3d531	0.021952244
70	0xbac60127	-0.0015106545
71	0x3f0beccf	0.54658216
72	0xbea6aad7	-0.32552215
73	0xbca0be3f	-0.019621966
74	0xbefdac7a	-0.49545652
75	0x3c2f6137	0.01070433
76	0xbb9e66bb	-0.004834024
77	0xbb7ccef2	-0.0038575497
78	0xbebd3366	-0.36953276
79	0xba93b18b	-0.0011268122
80	0xbcd83f42	-0.026397351
81	0xbebe548d	-0.37173882
82	0xbe275ad5	-0.16343243
83	0x3cecd8ad	0.028911913
84	0xbbf4cfb3	-0.0074710487
85	0xbb885a84	-0.004161181
86	0x3dc4ed7f	0.09615611
87	0x3e9678a3	0.29388914
88	0xbb73dc10	-0.0037210025
89	0xbe296bbe	-0.16545007
90	0xba8ee91d	-0.0010903213
91	0x3b60e194	0.0034314143
92	0x3c78119a	0.015140915
93	0x3e38d5f8	0.18050373
94	0xbb62f1ce	-0.003462899
95	0x3bb4a3d8	0.0055126958
96	0x3e8fc0df	0.28076836
97	0xbe214c59	-0.1575178
98	0xbc421cb7	-0.011847666
99	0x3c876bc7	0.016530884
100	0x3b2f5d71	0.0026758576
101	0xbe4f0e68	-0.2022034
102	0xbd8b578f	-0.0680381
103	0x3b6f9a60	0.003656052
104	0x3e9d9ff2	0.3078609
105	0x3c1a420d	0.009415162
106	0x3ba8b389	0.0051483554
107	0xbbcc28b4	-0.006230438
108	0x3d03cf6c	0.032180235
109	0xbb71d70c	-0.003690186
110	0xbbb10383	-0.00540203
111	0xbea300c7	-0.3183653
112	0xbdd2e5d0	-0.102977395
113	0x3caa6a66	0.020802688
114	0xbbc4647a	-0.005993423
115	0x3b24f608	0.002517106
116	0x3f7a1bc3	0.9769861
117	0x3ea9d7f6	0.33172578
118	0x3c8e53c7	0.017373933
119	0x3d09273a	0.033484675
120	0xbb939458	-0.004503768
121	0xba831e19	-0.0010003477
122	0x3972f71a	0.00023170971
123	0xbdcec8c9	-0.100968905
124	0xbc03bcc2	-0.008040609
125	0x3b685f30	0.0035457127
126	0xbe174302	-0.14771655
127	0x3e1b4219	0.15161933
128	0x3c21abab	0.009867589
129	0xbb2f02a1	-0.0026704448
130	0xbb8c5391	-0.004282423
131	0x3f09477c	0.536247
132	0xbe24e20f	-0.1610186
133	0x3c0608fe	0.008180855
134	0xbf0ab50c	-0.54182506
135	0x3be16ee1	0.006879673
136	0x3b0c28a3	0.0021386526
137	0xbc9c03ef	-0.019044844
138	0x3ec87aa5	0.3915607
139	0xbb6a713a	-0.0035773055
140	0xbba59e58	-0.0050542764
141	0xbed27165	-0.41102138
142	0x3eae9763	0.34099874
143	0x3b9d2c94	0.004796574
144	0xba9206da	-0.0011140958
145	0x3bb8d96b	0.0056411526
146	0xbf33e17f	-0.70265955
147	0x3f6f3bde	0.93450725
148	0x3c12ad6d	0.008952481
149	0xbdbe2041	-0.09283496
150	0xbc023e17	-0.007949374
151	0xbbf434a5	-0.007452565
152	0x3c7a4e22	0.015277417
153	0xbeba5405	-0.36392227
154	0x3b867d5e	0.0041043004
155	0xbb80faf9	-0.0039361683
156	0x3e96b9fc	0.2943877
157	0xbe3299c7	-0.17441474
158	0x3bad5bc1	0.005290479
159	0xbc5cad2a	-0.01346902
160	0xbc26faf5	-0.010191669
161	0x3f0f0838	0.55871916
162	0xbedd81f5	-0.43263212
163	0xbb2e9fba	-0.0026645497
164	0x3e1358a5	0.14389284
165	0x3c0f791c	0.008756902
166	0xba7c9e08	-0.00096365856
167	0x3b9333a6	0.004492241
168	0xbc3321bf	-0.010933339
169	0x3c8705f9	0.01648234
170	0x3b8688ee	0.0041056788
171	0x3e44e862	0.19229272
172	0xbf5b5dc2	-0.8568994
173	0x3ab98f4a	0.0014157083
174	0x3a02f4fa	0.0004995611
175	0xba218a28	-0.00061622495
176	0xbcaa5c79	-0.020796048
177	0xbf8c8a33	-1.0979675
178	0x3c98f6b8	0.018672332
179	0x3e878ad3	0.26473102
180	0x3c034bd0	0.008013681
181	0xbc029796	-0.007970711
182	0xbba3e762	-0.005001948
183	0xbde50e01	-0.11184312
184	0x3b486ff3	0.0030584305
185	0xbb3e9b05	-0.0029084098
186	0xbdefb338	-0.11704105
187	0xbe93410a	-0.28760558
188	0xbb8b1567	-0.0042444947
189	0x3afb24ad	0.001916071
190	0x3bdc6346	0.0067257015
191	0x3f68ac88	0.9088826
192	0x3f0db15a	0.5534874
193	0xbad651ac	-0.0016351244
194	0x3f0b376b	0.54381436
195	0xbc292d6e	-0.010325773
196	0x3b10118b	0.0021983113
197	0xbb3f61b2	-0.0029202518
198	0xbcc8f6ca	-0.02453174
199	0xba2bf323	-0.00065593625
200	0xba72412a	-0.00092412776
201	0xbd8644b6	-0.06556074
202	0xbd75affa	-0.059982277
203	0xbbf3d1c9	-0.00744078
204	0x3bf2e08e	0.007412023
205	0xbb7a465d	-0.0038188912
206	0xbe1a1634	-0.15047532
207	0x3e8482eb	0.25881132
208	0xbbc779c8	-0.0060875155
209	0x3c921a34	0.01783476
210	0x3bc3879c	0.0059670936
211	0x3b855172	0.004068547
212	0x3c146d05	0.009059195
213	0xbe1e7fe4	-0.15478474
214	0x3b456dec	0.0030125333
215	0xb9c09436	-0.0003673152
216	0xbe5ce223	-0.2157064
217	0xbf9e3120	-1.2358742
218	0x3bf92d37	0.007604267
219	0xbb1cff2a	-0.00239558
220	0xbc10533b	-0.008808906
221	0x3f092fa4	0.5358832
222	0xbf0c6e21	-0.54855543
223	0xbb36e8b5	-0.00279097
224	0x3e43b582	0.19112208
225	0xbc294515	-0.010331412
226	0x3b106274	0.002203134
227	0x3c83f271	0.016106816
228	0x3dee293a	0.11628957
229	0xbb68c0d4	-0.0035515325
230	0x3bb044c5	0.0053792917
231	0xbcf23f70	-0.029571265
232	0xbdebc0e6	-0.11511402
233	0x39afc28c	0.0003352355
234	0x3b8adea0	0.0042379647
235	0x3c0569fa	0.008142943
236	0xbf5b7cbb	-0.857372
237	0xbe428495	-0.18995889
238	0xbbba0d8b	-0.005677884
239	0xbe9f9839	-0.31170824
240	0x3c369df5	0.011146058
241	0x3cd35847	0.02579893
242	0x3c82fd8c	0.015990041
243	0xbf024b02	-0.508957
244	0x39f2e2c3	0.00046326788
245	0x3ac021c4	0.00146585
246	0xbf54908a	-0.8303305
247	0x3f0c96c4	0.5491755
248	0x3bf7d132	0.00756278
249	0xbbdcb9f0	-0.0067360327
250	0x3c9903dd	0.0186786
251	0x3ed0858d	0.4072689
252	0xbcdae419	-0.026720094
253	0x3c39534c	0.011311363
254	0xbd8067c8	-0.06269795
255	0x39d7544b	0.000410708

decoder.0.bias f4 [64]
0	0x3df393d9	0.11893434
1	0x3eaebde1	0.3412924
2	0x3f20a062	0.62744725
3	0x3d97655b	0.07392379
4	0x3eb56261	0.3542662
5	0x3f427575	0.75960475
6	0x3f1e1625	0.6175254
7	0xbe54b2ef	-0.20771383
8	0x3f007304	0.501755
9	0xbee77bda	-0.4521168
10	0x3e8c88d3	0.2744814
11	0x3e733656	0.23751196
12	0x3caf3152	0.021385822
13	0x3f7051be	0.9387473
14	0xbe53d6fa	-0.20687476
15	0x3ea3f747	0.32024595
16	0xbd08f902	-0.033440597
17	0xbd888bcd	-0.0666729
18	0xbe8c2997	-0.2737548
19	0x3d6b1b78	0.057399243
20	0x3f1b1acb	0.6058776
21	0x3ee7f7d4	0.45306265
22	0x3f0a1891	0.53943735
23	0x3f3f6655	0.7476552
24	0x3efae96f	0.4900622
25	0xbde3162d	-0.11088214
26	0x3e7d1a6c	0.2471711
27	0x3f0d3e89	0.55173546
28	0xbf0ab05c	-0.54175353
29	0xbf8cfeff	-1.1015319
30	0x3f4afb62	0.7928983
31	0xbe72d447	-0.2371379
32	0x3e900fb3	0.28136978
33	0x3f4b7705	0.79478484
34	0x3ec56de8	0.38560414
35	0x3f195eb7	0.5991015
36	0x3f051687	0.519875
37	0xbe27984d	-0.16366692
38	0x3edfecf9	0.43735483
39	0xbeac6dd9	-0.33677557
40	0x3d871786	0.065962836
41	0x3f4d27e4	0.80138993
42	0xbec8d687	-0.3922617
43	0x3d92ba0f	0.07164394
44	0xbdec2e05	-0.11532215
45	0x3f4d7c6c	0.8026798
46	0x3e9f5d73	0.31125984
47	0x3d902de1	0.07040001
48	0x3f6dff92	0.92968094
49	0xbd0fcba0	-0.0351063
50	0x3f23713d	0.6384466
51	0xbe8eeb63	-0.2791396
52	0x3f10f275	0.5661996
53	0xbe310c12	-0.1728976
54	0x3f5b9cbc	0.8578603
55	0xbf286e43	-0.65793246
56	0xbe078384	-0.13233763
57	0x3ddf3bd4	0.10900083
58	0x3f2b99d0	0.67031574
59	0xbbf620ec	-0.007511249
60	0xbef062e0	-0.46950436
61	0xbeaab3ab	-0.333402
62	0x3e86e05b	0.26343045
63	0xbd84d84e	-0.06486569
